runs/cartpole1.pt (torch, 2272 bytes, 4 tensors)

fc1.weight f4 [10, 4]
-0.040104344 -0.22771929 -0.031506047 -0.258443 0.11540228 0.23613897 0.2749228 -0.15982506
-1.8387909 -0.83711874 4.1213202 2.7873018 0.026849633 0.58549047 0.68924505 0.124459974
0.15209301 0.2781224 0.5389038 0.7920347 0.57002354 -0.13302714 0.19480139 0.733189
-0.062178176 -0.38671777 -0.16898665 -0.2179004 0.393205 0.5798974 0.54243714 0.04475498
0.10926655 0.2863174 0.6559353 0.90477735 -0.64267284 -0.47096747 0.26067805 0.43060791
00000000: 7444 24bd 3f2f 69be 7c0c 01bd a452 84be
00000010: 0858 ec3d 6ace 713e aec2 8c3e 2ea9 23be
00000020: 805d ebbf 6a4d 56bf dbe1 8340 2763 3240
00000030: c3f3 db3c b4e2 153f 5d72 303f dfe4 fe3d
00000040: 45be 1b3e 0f66 8e3e 99f5 093f c9c2 4a3f
00000050: 10ed 113f 4438 08be 047a 473e 46b2 3b3f
00000060: 8bae 7ebd dfff c5be d60a 2dbe 4821 5fbe
00000070: 2a52 c93e 2874 143f 29dd 0a3f ff50 373d
00000080: 24c7 df3d 3298 923e 60eb 273f 7d9f 673f
00000090: 3586 24bf a622 f1be 9877 853e a478 dc3e

fc1.bias f4 [10]
-0.3332393 2.3045058 -0.10205 2.236976 2.234439 2.3088381 -0.4594543 2.4030943
2.4797132 2.1916242
00000000: 579e aabe 067d 1340 97ff d0bd 9d2a 0f40
00000010: 0c01 0f40 01c4 1340 983d ebbe 4ccc 1940
00000020: 9fb3 1e40 9243 0c40

fc2.weight f4 [2, 10]
0.28494126 2.142112 -2.515823 1.8124343 1.705517 1.408276 0.09097398 2.1196182
1.4102262 1.2432337 -0.21569113 1.8214123 -2.299793 1.6954907 1.5045727 1.4777
-0.081368655 1.8262287 1.8588829 1.7505907
00000000: d2e3 913e 5d18 0940 3e03 21c0 d9fd e73f
00000010: 624e da3f 6342 b43f 9150 ba3d d3a7 0740
00000020: 4b82 b43f 4822 9f3f 23de 5cbe 0a24 e93f
00000030: cf2f 13c0 d705 d93f d795 c03f 4625 bd3f
00000040: 9ca4 a6bd ddc1 e93f e0ef ed3f 5b13 e03f

fc2.bias f4 [2]
1.5435996 1.251424
00000000: ac94 c53f a92e a03f
