runs/cartpole1.pt (torch, 2272 bytes, 4 tensors)

fc1.weight f4 [10, 4]
-0.022957029 -0.21669741 -0.065702535 -0.2768925 0.24335416 0.2874422 -0.622427 -0.8026775
0.37195167 0.3206951 0.2916224 0.29772982 0.5577565 0.7291749 -0.8104871 -0.7007203
-0.035993673 -0.09098391 0.023775449 0.55344474 0.34190366 -0.6104 -0.22273088 0.61256427
-0.13040991 -0.41112533 -0.1436776 -0.2560768 0.48927644 0.5841799 -0.2960724 -0.5493082
0.08954224 0.17577483 0.076679476 0.51304895 -0.7374111 -0.7999579 -0.17768045 0.23025678
00000000: 6110 bcbc ede5 5dbe 0d8f 86bd dbc4 8dbe
00000010: d531 793e a02b 933e 6057 1fbf 467c 4dbf
00000020: 7370 be3e 2632 a43e 884f 953e 0b70 983e
00000030: 21c9 0e3f 35ab 3a3f 157c 4fbf 6862 33bf
00000040: 1a6e 13bd c655 babd bbc4 c23c 8eae 0d3f
00000050: ff0d af3e 2d43 1cbf 9013 64be 03d1 1c3f
00000060: 2d8a 05be 057f d2be 3920 13be 801c 83be
00000070: 7182 fa3e d08c 153f cd96 97be 769f 0cbf
00000080: ec61 b73d 51fe 333e 210a 9d3d 2d57 033f
00000090: f9c6 3cbf 0aca 4cbf ddf1 35be 6fc8 6b3e

fc1.bias f4 [10]
-0.30580264 0.46923357 -0.24662702 0.06468242 0.58772933 0.53094125 -0.3761337 0.6351883
0.858832 0.38979235
00000000: 2a92 9cbe 623f f03e cb8b 7cbe 3778 843d
00000010: 6e75 163f c4eb 073f 9994 c0be b39b 223f
00000020: 6adc 5b3f dd92 c73e

fc2.weight f4 [2, 10]
0.31797138 0.61470443 0.2591912 0.5268723 0.6700646 0.65274066 -0.01105024 0.50470185
0.29557118 0.5498181 -0.17625736 0.4917834 -0.1616916 0.42783484 0.09394035 0.13393122
-0.14780988 0.5010625 0.44284704 0.33613113
00000000: 25cd a23e 455d 1d3f b5b4 843e 1ae1 063f
00000010: 5b89 2b3f 031a 273f 110c 35bc 2434 013f
00000020: 1b55 973e e1c0 0c3f cf7c 34be 09cb fb3e
00000030: 7c92 25be 2b0d db3e cc63 c03d 4425 093e
00000040: 795b 17be a245 003f d9bc e23e 6119 ac3e

fc2.bias f4 [2]
0.5747383 0.22264488
00000000: 0d22 133f 05fd 633e
