runs/flappybird1.pt (torch, 376944 bytes, 4 tensors)

fc1.weight f4 [512, 180]
0.05560714 0.024977867 -0.034480054 0.005765238 -0.048010524 0.042027462 0.026633298 0.008010878
0.062385857 0.02615637 -0.04304013 0.06374119 0.028801808 0.027748203 0.008643059 -0.062740885
-0.019811869 0.05921156 0.035762753 0.0152130285 -0.043208346 -0.053400528 0.039559226 -0.013922904
0.027410718 -0.0131924935 0.016108835 -0.00040619864 0.0107855 -0.06451809 -0.042091336 -0.08279811
-0.06269836 0.05100502 0.022812577 0.0033515985 -0.08121363 -0.049446475 -0.0030720574 -0.033778716
-0.07881054 -0.0336154 -0.07813232 0.057398498 0.04207821 -0.07864193 0.04350736 0.015188665
-0.035203498 -0.037807394 -0.04003059 0.022126414 0.057292696 0.07692375 0.063659914 0.010946533
-0.049290795 -0.033603944 0.05675859 0.0082537765 0.05230297 0.0038188223 -0.016620537 -0.02370558
0.06616604 0.07689599 -0.013621197 -0.024016412 0.04584494 -0.019723231 -0.036386106 0.045165833
0.040123247 0.035042975 0.07766301 -0.046704594 -0.011957498 0.020974822 0.09211718 0.0038821634
0.08273747 -0.031247003 0.06304972 0.04102621 0.006071365 0.09417405 0.026726909 0.011691468
-0.044854052 -0.028374115 0.018448485 0.07606854 0.040191952 0.0030900587 0.09582628 -0.0007111935
0.07148724 0.060195677 0.06313959 0.00068146875 -0.042904485 0.019165372 0.06266001 0.04551977
0.0747534 0.044395223 0.020349666 -0.0038395454 -0.036002543 0.07985149 0.015246449 0.07649476
0.006903085 0.03878114 0.08051876 -0.057408977 -0.061872113 0.038328934 -0.027058877 -0.037412792
0.003018075 -0.068535596 -0.067989066 -0.024528911 -0.057148714 -0.030593405 -0.047402054 0.07377971
-0.05796386 0.04888127 -0.0020524233 0.066060096 0.04653028 0.022812711 -0.037302274 0.0147147095
0.049036454 -0.03361849 -0.03610139 -0.03015872 0.06188679 0.026153589 0.012327014 0.027350565
-0.07284745 0.033328295 -0.08233681 0.00083146215 0.01273159 -0.0728119 0.050064523 0.05478904
-0.04701142 -0.07340919 -0.03950262 0.024892632 0.05911807 0.05383337 0.0223757 -0.015077887
-0.016898284 -0.045631636 -0.04130859 -0.00100523 0.025312835 -0.07435383 -0.061382383 0.067244366
0.05147979 0.016828578 -0.021907896 -0.061641857 -0.032858368 -0.03840163 -0.02015877 -0.07522116
-0.0586523 -0.032257825 -0.051264774 0.03349033 0.01232491 -0.032711193 -0.02914937 0.075355396
-0.015047606 -0.04401738 -0.056011073 0.059744034 0.056001358 0.029190252 -0.024922295 -0.04901621
8.900265e-05 -0.044408396 0.0042448533 0.009609511 0.052804567 0.036760017 0.060667917 -0.019133642
-0.03285396 0.07600919 -0.0014304199 -0.062431373 0.03514238 0.054464288 0.047407296 -0.05229249
0.063720465 0.06270105 -0.01761703 -0.021175751 0.011180046 -0.020743735 0.07974565 0.07251267
-0.045708697 0.030266015 -0.05281793 0.081420876 -0.025482034 0.079196334 0.009179797 0.08989221
-0.04162048 0.0474953 0.07006705 0.083447374 0.0016834965 -0.026346944 -0.047394108 -0.00037213624
0.0012061304 -0.061170094 -0.017661596 -0.05398247 0.046573605 0.048573453 -0.048622288 0.030776575
0.014215642 -0.04820183 0.029358 0.057438746 -0.024070371 -0.05121713 0.0030734988 0.047054768
0.021788377 -0.031159911 0.0028648777 0.009959834 -0.022852495 -0.08555937 -0.0025930458 0.017531425
00000000: 50c4 633d 629e cc3c f53a 0dbd 52ea bc3b
00000010: afa6 44bd fd24 2c3d 132e da3c 0f40 033c
00000020: 5088 7f3d e245 d63c d94a 30bd be8a 823d
00000030: c5f1 eb3c 3350 e33c 9e9b 0d3c 4b7e 80bd
00000040: 804c a2bc d287 723d f77b 123d 1140 793c
00000050: 3cfb 30bd 83ba 5abd db08 223d e41c 64bc
00000060: 718c e03c 5425 58bc adf6 833c 0ff7 d4b9
00000070: aab5 303c 0f22 84bd f767 2cbd 0e92 a9bd
00000080: ff67 80bd a4ea 503d 71e1 ba3c 7ea6 5b3b
00000090: 5553 a6bd 6388 4abd 9254 49bb 8d5b 0abd
000000a0: 6c67 a1bd 4db0 09bd d603 a0bd b01a 6b3d
000000b0: 335a 2c3d 050f a1bd c634 323d e1d9 783c
000000c0: 8b31 10bd eddb 1abd 1ef7 23bd 7442 b53c
000000d0: bfab 6a3d 338a 9d3d 2160 823d 1659 333c
000000e0: 25e5 49bd 4aa4 09bd b27b 683d d93a 073c
000000f0: a43b 563d 3545 7a3b cb27 88bc 3432 c2bc
00000100: 1082 873d a57b 9d3d 712b 5fbc 11be c4bc
00000110: e7c7 3b3d 9d92 a1bc 9909 15bd cfff 383d
00000120: 4658 243d 3989 0f3d c90d 9f3d 514d 3fbd
00000130: 62e9 43bc 64d3 ab3c efa7 bc3d e56b 7e3b
00000140: 4372 a93d b7f9 ffbc 3620 813d 190b 283d
00000150: 4df2 c63b 53de c03d 64f2 da3c 928d 3f3c
00000160: e2b8 37bd d570 e8bc 4721 973c d3c9 9b3d
00000170: 51a0 243d 9582 4a3b 9240 c43d 636f 3aba
00000180: e767 923d be8f 763d 544f 813d 98a4 323a
00000190: 9dbc 2fbd b300 9d3c e453 803d f072 3a3d
000001a0: 5018 993d c4d7 353d 58b4 a63c e2a0 7bbb
000001b0: 6777 13bd 2e89 a33d 3ecc 793c 49a9 9c3d
000001c0: 4633 e23b f9d8 1e3d 05e7 a43d ad25 6bbd
000001d0: 9d6d 7dbd cdfe 1c3d 94aa ddbc 283e 19bd
000001e0: e5ca 453b 645c 8cbd da3d 8bbd dbf0 c8bc
000001f0: c514 6abd 059f fabc a828 42bd d119 973d
00000200: 836b 6dbd ba37 483d f381 06bb 844a 873d
00000210: 8996 3e3d b9e1 ba3c 45ca 18bd f715 713c
00000220: 73da 483d 8bb3 09bd 0ddf 13bd 6c0f f7bc
00000230: 017d 7d3d 0d40 d63c 3ef7 493c 4b0e e03c
00000240: 0b31 95bd 4083 083d 34a0 a8bd 7bf6 593a
00000250: 2998 503c 681e 95bd 7510 4d3d 796a 603d
00000260: 0c8f 40bd 8f57 96bd 80cd 21bd a2eb cb3c
00000270: ca25 723d 6180 5c3d 3e4d b73c 3e09 77bc
00000280: 456e 8abc 3de8 3abd 3233 29bd ecc1 83ba
00000290: dd5c cf3c d246 98bd 186c 7bbd 6ab7 893d
000002a0: 79dc 523d 16dc 893c 3078 b3bc 2c7c 7cbd
000002b0: 7f96 06bd 074b 1dbd 0124 a5bc 8d0d 9abd
000002c0: 653d 70bd c820 04bd 03fb 51bd 282d 093d
000002d0: 6bee 493c 2cfc 05bd a9ca eebc ee53 9a3d
000002e0: 3c8a 76bc 914b 34bd de6b 65bd 29b6 743d
000002f0: ae61 653d 6520 ef3c d729 ccbc 39c5 48bd
00000300: efa6 ba38 94e5 35bd 6918 8b3b 3671 1d3c
00000310: 9a49 583d ac91 163d ec7e 783d 28be 9cbc
00000320: e091 06bd b5aa 9b3d ed7c bbba 0ab8 7fbd
00000330: 75f1 0f3d f215 5f3d 272e 423d a630 56bd
00000340: e07f 823d 6869 803d 9751 90bc c578 adbc
00000350: 832c 373c c4ee a9bc b051 a33d 8681 943d
00000360: 0b39 3bbd 6ff0 f73c 9d57 58bd fdbf a63d
00000370: b3bf d0bc b031 a23d dc66 163c 6819 b83d
00000380: 3d7a 2abd 6f8a 423d 507f 8f3d 75e6 aa3d
00000390: c5a8 dc3a 8cd5 d7bc 5320 42bd 481b c3b9
000003a0: 0517 9e3a 7e8d 7abd 0daf 90bc b91c 5dbd
000003b0: f7c3 3e3d f5f4 463d 2a28 47bd 281f fc3c
000003c0: b9e8 683c 486f 45bd 3080 f03c e444 6b3d
000003d0: 3a2f c5bc 0ec9 51bd c16c 493b 80bc 403d
000003e0: 8a7d b23c 1243 ffbc acc0 3b3b 922e 233c
000003f0: 2835 bbbc c039 afbd 17f0 29bb 109e 8f3c

fc1.bias f4 [512]
0.020555407 0.082036495 0.051455393 -0.0076411148 -0.06142929 -0.037627377 -0.03658871 -0.09553512
-0.06312078 -0.022578644 0.030569224 -0.03862116 0.041639324 -0.002005537 -0.061801046 -0.013044895
-0.07555134 -0.042711493 0.03195884 0.050163615 -0.01271761 -0.020641485 -0.037614968 0.0042149373
-0.03112709 -0.10406934 -0.052175436 0.04188918 0.012913723 0.048545647 -0.007474624 0.017439548
0.044899553 -0.06179058 0.09708779 0.06397252 0.0089038545 -0.06269002 0.009540624 -0.06969809
0.04077155 0.03999713 0.015767228 0.05884134 -0.04770158 0.058305025 0.011363984 -0.0047433497
0.07299335 -0.02089515 0.07261558 -0.08872384 0.040460497 -0.06122295 0.024245802 0.03462229
0.045792866 0.029081272 -0.0506933 0.057797607 -0.03484395 0.03012697 0.042242184 -0.06890817
0.07562206 -0.056791656 0.076833 0.05378892 0.01557035 0.040674955 -0.0002056442 0.039512064
-0.066908166 -0.032539446 -0.07218603 -0.021390842 -0.08745207 0.043114968 0.038117863 -0.0347239
-0.05385843 0.034590427 0.00021722286 -0.088666916 -0.046714976 -0.031626314 -0.036242582 0.024111224
-0.070020854 -0.024364615 0.03255948 -0.022952214 0.03780746 0.060967717 -0.0039481204 -0.061418224
0.030324567 0.02255231 0.043510333 -0.049456857 -0.03997021 0.03364295 -0.030485757 -0.02893851
-0.055577576 0.018919857 -0.0148557415 0.044426672 -0.05321213 -0.019163204 -0.059485525 -0.032875452
0.044835888 -0.014398015 0.05598191 0.07939824 -0.027668528 0.0102837235 -0.045795646 -0.0066824253
-0.030278018 -0.0131284045 -0.043880537 0.037915867 0.059643716 0.08630731 0.07529979 0.04676747
-0.020829553 0.03506098 -0.007974445 -0.058501188 0.034370508 0.036576577 0.009784665 0.08899682
-0.005746357 0.048210643 -0.095372364 -0.04747653 0.03339418 -0.016230501 0.09534424 -0.010340739
0.017763698 0.011885884 0.00634205 -0.015971944 -0.048368365 0.0088194525 -0.03030727 0.06792802
-0.024184832 -0.080361746 0.066129096 0.012886328 0.01978142 -0.03186819 0.0048243487 -0.053417794
0.041720983 -0.039586667 0.0035945005 0.046733268 -0.06411394 -0.09280364 0.017610947 0.019511225
0.07421899 0.037779298 -0.011007037 -0.0067175687 0.039287083 -0.0004353055 -0.047059145 -0.08567106
-0.053089213 0.027924828 0.06616292 -0.023889594 -0.029386187 -0.09287741 0.08409952 -0.007643481
0.05815711 0.049019445 0.040965505 -0.050453454 -0.04760222 -0.07189411 0.0312651 -0.06330996
0.026745064 0.05666655 -0.08736033 0.04997105 -0.0068356283 -0.056063525 0.0489098 0.028316263
-0.06236561 0.03317458 -0.03727205 -0.028477 -0.08578542 0.0036504338 -0.038410682 0.025216354
0.0041799503 -0.059889928 -0.04240576 0.07123558 -0.051146798 -0.019924639 -0.02367383 -0.039750602
0.033865407 -0.05734082 0.036819685 0.047716115 -0.0007968147 -0.030436357 0.006081437 0.049064424
-0.031815585 0.08235409 -0.031269573 0.014997665 0.03449417 -0.028063072 0.061798643 0.043931164
-0.0065597226 0.0029541978 0.035630845 0.029019777 -0.04544654 -0.04112911 0.02017292 0.0114951655
-0.055739447 0.020189302 -0.067525566 -0.076882325 -0.033488356 0.083712995 -0.029913496 -0.0113501325
-0.060861666 0.019345723 0.053768 0.05604711 -0.0145219825 -0.05882858 0.083408095 -0.024242766
00000000: d063 a83c c002 a83d e4c2 523d 5162 fabb
00000010: 479d 7bbd 2a1f 1abd 0bde 15bd eba7 c3bd
00000020: 7845 81bd d9f6 b8bc 4f6c fa3c 3931 1ebd
00000030: ff8d 2a3d 546f 03bb 1823 7dbd 41ba 55bc
00000040: a9ba 9abd 3ff2 2ebd 46e7 023d 5d78 4d3d
00000050: 865d 50bc 5518 a9bc 2712 1abd 751d 8a3b
00000060: 3dfe febc 4e22 d5bd e9b5 55bd fd93 2b3d
00000070: 1494 533c cdd7 463d b1ed f4bb 62dd 8e3c
00000080: 98e8 373d 1f18 7dbd f7d5 c63d 0604 833d
00000090: 79e1 113c a063 80bd 4750 1c3c dfbd 8ebd
000000a0: 1200 273d 08d4 233d 462a 813c 9e03 713d
000000b0: bb62 43bd 40d1 6e3d 0130 3a3c 1a6e 9bbb
000000c0: 8a7d 953d 4e2c abbc 7ab7 943d d8b4 b5bd
000000d0: e8b9 253d ebc4 7abd 229f c63c 1ad0 0d3d
000000e0: 4d91 3b3d d93b ee3c c7a3 4fbd 2fbd 6c3d
000000f0: 88b8 0ebd d6cc f63c 2406 2d3d ba1f 8dbd
00000100: bddf 9a3d 5e9e 68bd 9f5a 9d3d c551 5c3d
00000110: c81a 7f3c c89a 263d 32a2 57b9 67d7 213d
00000120: 2607 89bd 1548 05bd 45d6 93bd d93b afbc
00000130: 121a b3bd 5299 303d 7a21 1c3d a63a 0ebd
00000140: a89a 5cbd b1ae 0d3d 51c6 6339 0097 b5bd
00000150: 3458 3fbd 988a 01bd 1a73 14bd e784 c53c
00000160: 1867 8fbd 4d98 c7bc 175d 053d 4806 bcbc
00000170: ffdb 1a3d 49b9 793d 3c5f 81bb ad91 7bbd
00000180: 3a6b f83c 9fbf b83c e437 323d 4693 4abd
00000190: ceb7 23bd 31cd 093d 44bd f9bc 7410 edbc
000001a0: 50a5 63bd d1fd 9a3c 7f65 73bc bef8 353d
000001b0: f6f4 59bd 27fc 9cbc 18a7 73bd 69a8 06bd
000001c0: d6a5 373d a7e5 6bbc 4a4d 653d 8b9b a23d
000001d0: 1ca9 e2bc 107d 283c 3794 3bbd 3ff8 dabb
000001e0: 9b09 f8bc 8518 57bc 14bc 33bd ab4d 1b3d
000001f0: f84c 743d e3c1 b03d c736 9a3d 3f8f 3f3d
00000200: bda2 aabc 1a9c 0f3d 3fa7 02bc f19e 6fbd
00000210: 17c8 0c3d 52d1 153d dc4f 203c f743 b63d
00000220: f04b bcbb 8678 453d 9652 c3bd c076 42bd
00000230: 56c8 083d d4f5 84bc d743 c33d 346c 29bc
00000240: 2d85 913c 03bd 423c f9d0 cf3b 98d7 82bc
00000250: e81d 46bd 777f 103c f446 f8bc d91d 8b3d
00000260: 451f c6bc b394 a4bd b16e 873d 2d21 533c
00000270: a50c a23c 3888 02bd 9215 9e3b 9ecc 5abd
00000280: 9fe3 2a3d a125 22bd b691 6b3b 626b 3f3d
00000290: 2b4e 83bd d60f bebd d544 903c 01d6 9f3c
000002a0: 2000 983d 77be 1a3d dc56 34bc 0d1f dcbb
000002b0: 7eeb 203d b739 e4b9 17c1 40bd 4f74 afbd
000002c0: 1374 59bd 9cc2 e43c 6d80 873d 1cb4 c3bc
000002d0: 4dbb f0bc 8336 bebd 5f3c ac3d 2a76 fabb
000002e0: 2636 6e3d 9dc8 483d 72cb 273d 48a8 4ebd
000002f0: 8cfa 42bd 383d 93bd d50f 003d a7a8 81bd
00000300: 7718 db3c 2f1b 683d f9e9 b2bd 72ae 4c3d
00000310: 68fd dfbb dea2 65bd a455 483d 82f7 e73c
00000320: 1573 7fbd 12e2 073d 94aa 18bd 9948 e9bc
00000330: 44b0 afbd 1e3c 6f3b 8554 1dbd 8792 ce3c
00000340: f7f7 883b 244f 75bd aab1 2dbd f6e3 913d
00000350: 4e7f 51bd ff38 a3bc 9fef c1bc 87d1 22bd
00000360: 74b6 0a3d 35de 6abd 3dd0 163d f971 433d
00000370: 54e1 50ba ab55 f9bc cb46 c73b c7f7 483d
00000380: 0f51 02bd 43a9 a83d 8614 00bd c4b8 753c
00000390: c249 0d3d 87e4 e5bc 9320 7d3d 2af1 333d
000003a0: f1f2 d6bb 379b 413b a6f1 113d e2ba ed3c
000003b0: 2726 3abd ff76 28bd ae41 a53c 3856 3c3c
000003c0: 0c4f 64bd 0964 a53c d84a 8abd 7b74 9dbd
000003d0: 162b 09bd b871 ab3d 260d f5bc e8f5 39bc
000003e0: 154a 79bd ec7a 9e3c d63b 5c3d a891 653d
000003f0: 9ced 6dbc 3df6 70bd ddd1 aa3d c498 c6bc

fc2.weight f4 [2, 512]
0.053492907 -0.0015093697 0.0037004743 -0.082925655 -0.019436192 -0.070138685 0.004080524 0.061221056
0.014544371 -0.0640622 -0.049840413 0.045452867 0.011752382 -0.06098958 -0.031485412 -0.078229345
0.043295186 -0.0666895 0.039141826 0.04715002 -0.040492825 -0.021793814 -0.02249978 -0.0701126
0.051495004 0.02505961 -0.04478219 -0.041218072 -0.057099577 0.021870198 0.042815745 -0.07441199
0.017554231 -0.017914113 -0.06364479 -0.06631118 -0.052892007 -0.054563172 0.032337926 0.007705374
-0.07704982 0.005228836 0.08380263 -0.0433843 0.031675033 -0.061088737 0.0011353161 0.048749097
-0.057557665 0.020320453 -0.074600175 0.061346315 -0.06782049 -0.0012583047 0.021342332 -0.061412357
0.0827752 -0.082164794 -0.051450714 -0.040708777 0.03349539 0.07665981 -0.05690358 -0.0008128094
-0.059530456 -0.042652845 -0.07592294 -0.07150444 0.07297439 0.013590344 -0.038151745 -0.05600446
0.014287607 0.038448595 0.013904966 -0.072419584 0.04164011 0.06338183 0.042556062 0.021783203
0.10597309 0.050143093 0.015765281 0.028494937 -0.043380354 0.04414 0.037821416 0.07153549
-0.00950374 -0.015258613 0.035396658 -0.0721543 0.008056299 0.020416534 0.025851948 0.008527809
0.042384617 -0.036067717 0.07148372 0.047533076 0.025100814 -0.023863753 0.033825144 -0.009539604
-0.002142314 -0.06712873 -0.07959298 0.07291896 0.06911413 0.0053835805 -0.084269434 -0.024198543
-0.02172418 0.010871853 0.0296039 -0.06532858 0.036744412 -0.06447396 0.02134215 0.032259855
0.051280454 -0.0008790961 0.020676758 -0.035685793 0.07207497 -0.03785312 -0.03311038 -0.06159073
0.05982943 -0.08623077 -0.085458845 0.01180298 -0.04738097 -0.021134509 -0.007523541 0.020329118
-0.034972228 -0.068468384 0.04179694 0.001983937 0.03686514 0.06951908 0.0063022003 0.056423757
0.023821121 -0.037611526 0.06757541 -0.029439226 -0.00807545 0.048642293 -0.02523319 -0.019508332
-0.060711373 -0.052225687 -0.05891091 0.058726046 0.021130165 -0.04223731 -0.030722998 0.003944518
-0.06857494 -0.040185653 0.029917892 0.02067792 0.052064564 0.0028762335 -0.035996746 -0.015335547
-0.045669794 -0.013974428 0.091948934 -0.0645611 -0.0242917 -0.024803493 0.004796093 0.031179162
-0.04281445 0.04026359 -0.019005407 0.005271277 0.0714047 0.031930134 -0.03962055 -0.009065344
-0.008112437 0.0005238634 0.024489848 0.032046515 0.037908178 0.042072594 0.0058274516 0.029749803
0.045840688 -0.009594733 0.028076576 -0.079509504 -0.00030526923 0.008395352 -0.056130774 -0.002576344
-0.009119486 -0.056139454 -0.01774407 -0.028844386 0.032463737 -0.06463719 -0.08295712 0.047145057
0.042884376 -0.0029030272 0.018440714 -0.07187241 0.0119764 -0.07585474 0.047715507 -0.07768228
0.049402483 -0.0657174 0.0057929535 -0.057959106 -0.07231012 -0.019461552 0.015382551 -0.07871082
0.0050875368 0.059028957 -0.09526207 0.017959604 0.023769338 0.021269059 0.020773754 -0.041410573
-0.033594076 -0.0502191 -0.051069643 -0.04301833 -0.059347264 -0.072034776 -0.054569446 0.04984026
0.0022681118 0.039290465 -0.03233558 0.0154550085 -0.031863604 -0.08473872 -0.06795768 0.0235525
-0.07648266 -0.022871155 0.05820078 -0.083658576 0.0231935 0.041231923 -0.060524803 0.063554876
00000000: 611b 5b3d 0bd6 c5ba a883 723b edd4 a9bd
00000010: a638 9fbc dfa4 8fbd ebb5 853b eec2 7a3d
00000020: 834b 6e3c 0b33 83bd 7625 4cbd c92c 3a3d
00000030: 108d 403c 36d0 79bd d9f6 00bd b536 a0bd
00000040: 4b56 313d 8194 88bd 2e53 203d 6120 413d
00000050: cedb 25bd f188 b2bc 7551 b8bc 3297 8fbd
00000060: 6dec 523d d049 cd3c 886d 37bd 48d4 28bd
00000070: 3fe1 69bd 2129 b33c 905f 2f3d 5065 98bd
00000080: e4cd 8f3c 9ec0 92bc 3358 82bd 28ce 87bd
00000090: 4aa5 58bd a27d 5fbd c674 043d 5d7d fc3b
000000a0: 4ccc 9dbd a856 ab3b b7a0 ab3d bcb3 31bd
000000b0: aebd 013d 2f38 7abd e3ce 943a 22ad 473d
000000c0: 96c1 6bbd 1477 a63c fac7 98bd 4646 7b3d
000000d0: 78e5 8abd b3ed a4ba 1dd6 ae3c 868b 7bbd
000000e0: 0b86 a93d 0446 a8bd fcbd 52bd 3fbe 26bd
000000f0: 7632 093d d2ff 9c3d ba13 69bd b712 55ba
00000100: 35d6 73bd c0b4 2ebd 7d7d 9bbd eb70 92bd
00000110: 9973 953d 09aa 5e3c 0145 1cbd ef64 65bd
00000120: 9116 6a3c 467c 1d3d a8d1 633c b850 94bd
00000130: d28e 2a3d 55ce 813d 444f 2e3d b072 b23c
00000140: 6b08 d93d d862 4d3d 3126 813c 376e e93c
00000150: 99af 31bd 25cc 343d a1ea 1a3d 3381 923d
00000160: 93b5 1bbc 43ff 79bc 16fc 103d a2c5 93bd
00000170: 91fe 033c 9340 a73c 77c7 d33c 39b8 0b3c
00000180: 7e9b 2d3d bebb 13bd 0e66 923d 0bb2 423d
00000190: 39a0 cd3c eb7d c3bc 3c8c 0a3d 004c 1cbc
000001a0: 1166 0cbb ca7a 89bd a501 a3bd 8956 953d
000001b0: b68b 8d3d bf68 b03b 7495 acbd 063c c6bc
000001c0: e8f6 b1bc db1f 323c e183 f23c feca 85bd
000001d0: 4f81 163d ec0a 84bd bcd5 ae3c e922 043d
000001e0: 740b 523d 2473 66ba 4e62 a93c 442b 12bd
000001f0: 0b9c 933d e00b 1bbd c09e 07bd 9046 7cbd
00000200: b40f 753d c299 b0bd 0c05 afbd 4961 413c
00000210: 8c12 42bd 4722 adbc 0988 f6bb 4089 a63c
00000220: 0a3f 0fbd 2739 8cbd 4533 2b3d f104 023b
00000230: e7ff 163d 0560 8e3d b082 ce3b 991c 673d
00000240: 8324 c33c 8b0e 1abd fa64 8a3d 882a f1bc
00000250: e44e 04bc 243d 473d d6b5 cebc f0cf 9fbc
00000260: 7dac 78bd 9aea 55bd 914c 71bd b98a 703d
00000270: 2b19 ad3c 0801 2dbd ccae fbbc 0441 813b
00000280: 0571 8cbd b699 24bd 5e16 f53c be64 a93c
00000290: a741 553d 317f 3c3b 5371 13bd f241 7bbc
000002a0: 4010 3bbd 00f5 64bc b94f bc3d 9c38 84bd
000002b0: 63ff c6bc b230 cbbc 8b28 9d3b 716b ff3c
000002c0: 345e 2fbd 6feb 243d 3ab1 9bbc adba ac3b
000002d0: a13c 923d 2cc9 023d 2849 22bd cf86 14bc
000002e0: 07ea 04bc e153 093a ef9e c83c 3543 033d
000002f0: 9b45 1b3d 5054 2c3d 35f4 be3b dcb5 f33c
00000300: 72c3 3b3d 3a33 1dbc d900 e63c e1d5 a2bd
00000310: 8b0c a0b9 a98c 093c 62e9 65bd e1d7 28bb
00000320: e669 15bc 7cf2 65bd 035c 91bc 104b ecbc
00000330: b2f8 043d 8160 84bd 6ce5 a9bd 2d1b 413d
00000340: 87a7 2f3d b740 3ebb fb10 973c d831 93bd
00000350: aa38 443c bb59 9bbd 5671 433d e317 9fbd
00000360: 425a 4a3d d896 86bd d1d2 bd3b 8766 6dbd
00000370: 5417 94bd d56d 9fbc 1807 7c3c 2333 a1bd
00000380: 5ab5 a63b 59c8 713d c318 c3bd 0520 933c
00000390: eab7 c23c 733c ae3c b82d aa3c 229e 29bd
000003a0: f199 09bd 8bb2 4dbd 672e 51bd fd33 30bd
000003b0: 1e16 73bd f886 93bd 3684 5fbd 4d25 4c3d
000003c0: 9aa4 143b 0aef 203d 5072 04bd 0137 7d3c
000003d0: 6983 02bd 7e8b adbd 652d 8bbd 2cf1 c03c
000003e0: f1a2 9cbd 4a5c bbbc f163 6e3d 3055 abbd
000003f0: 4b00 be3c cee2 283d dbe8 77bd 0f29 823d

fc2.bias f4 [2]
-0.048683807 -0.05975153
00000000: ac68 47bd 05be 74bd
